Found 20300 images belonging to 29 classes.
Found 1450 images belonging to 29 classes.
Found 15656 images belonging to 29 classes.
Model: "sequential"
_________________________________________________________________
Layer (type)                 Output Shape              Param #   
=================================================================
conv2d (Conv2D)              (None, 256, 256, 32)      896       
_________________________________________________________________
conv2d_1 (Conv2D)            (None, 256, 256, 32)      9248      
_________________________________________________________________
global_average_pooling2d (Gl (None, 32)                0         
_________________________________________________________________
dense (Dense)                (None, 16)                528       
_________________________________________________________________
dense_1 (Dense)              (None, 29)                493       
=================================================================
Total params: 11,165
Trainable params: 11,165
Non-trainable params: 0
_________________________________________________________________
None
Epoch 1/50
  1/159 [..............................] - ETA: 0s - loss: 3.6307 - accuracy: 0.0547  2/
…
