Found 20300 images belonging to 29 classes.
Found 1450 images belonging to 29 classes.
Found 15656 images belonging to 29 classes.
Model: "sequential"
_________________________________________________________________
Layer (type)                 Output Shape              Param #   
=================================================================
conv2d (Conv2D)              (None, 128, 128, 32)      896       
_________________________________________________________________
conv2d_1 (Conv2D)            (None, 128, 128, 64)      18496     
_________________________________________________________________
conv2d_2 (Conv2D)            (None, 128, 128, 64)      36928     
_________________________________________________________________
max_pooling2d (MaxPooling2D) (None, 64, 64, 64)        0         
_________________________________________________________________
conv2d_3 (Conv2D)            (None, 64, 64, 64)        36928     
_________________________________________________________________
conv2d_4 (Conv2D)            (None, 64, 64, 128)       73856     
_________________________________________________________________
max_pooling2d_1 (MaxPooling2 (None, 32, 32, 128)       0         
_________________________________________________________________
conv2d_5 (Conv2D)            (None, 32, 32, 128)       147584    
_________________________________________________________________
conv2d_6 (Conv2D)            (None, 32, 32, 256)       295168    
_________________________________________________________________
max_pooling2d_2 (MaxPooling2 (None, 16, 16, 256)       0         
_________________________________________________________________
conv2d_7 (Conv2D)            (None, 16, 16, 256)       590080    
_________________________________________________________________
conv2d_8 (Conv2D)            (None, 16, 16, 256)       590080    
_________________________________________________________________
max_pooling2d_3 (MaxPooling2 (None, 8, 8, 256)         0         
_________________________________________________________________
conv2d_9 (Conv2D)            (None, 8, 8, 256)         590080    
_________________________________________________________________
conv2d_10 (Conv2D)           (None, 8, 8, 512)         1180160   
_________________________________________________________________
max_pooling2d_4 (MaxPooling2 (None, 4, 4, 512)         0         
_________________________________________________________________
conv2d_11 (Conv2D)           (None, 4, 4, 512)         2359808   
_________________________________________________________________
conv2d_12 (Conv2D)           (None, 4, 4, 512)         2359808   
_________________________________________________________________
global_average_pooling2d (Gl (None, 512)               0         
_________________________________________________________________
flatten (Flatten)            (None, 512)               0         
_________________________________________________________________
dense (Dense)                (None, 128)               65664     
_________________________________________________________________
dense_1 (Dense)              (None, 29)                3741      
=================================================================
Total params: 8,349,277
Trainable params: 8,349,277
Non-trainable params: 0
_________________________________________________________________
None
Epoch 1/50
  1/159 [..............................] - ETA: 0s - loss: 3.5044 - accuracy: 0.0391
…
