Found 20300 images belonging to 29 classes.
Found 1450 images belonging to 29 classes.
Found 15656 images belonging to 29 classes.
Model: "sequential"
_________________________________________________________________
Layer (type)                 Output Shape              Param #   
=================================================================
conv2d (Conv2D)              (None, 128, 128, 32)      896       
_________________________________________________________________
conv2d_1 (Conv2D)            (None, 64, 64, 32)        9248      
_________________________________________________________________
max_pooling2d (MaxPooling2D) (None, 32, 32, 32)        0         
_________________________________________________________________
conv2d_2 (Conv2D)            (None, 32, 32, 64)        18496     
_________________________________________________________________
max_pooling2d_1 (MaxPooling2 (None, 16, 16, 64)        0         
_________________________________________________________________
conv2d_3 (Conv2D)            (None, 16, 16, 128)       73856     
_________________________________________________________________
max_pooling2d_2 (MaxPooling2 (None, 8, 8, 128)         0         
_________________________________________________________________
conv2d_4 (Conv2D)            (None, 8, 8, 128)         147584    
_________________________________________________________________
max_pooling2d_3 (MaxPooling2 (None, 4, 4, 128)         0         
_________________________________________________________________
conv2d_5 (Conv2D)            (None, 4, 4, 128)         147584    
_________________________________________________________________
global_average_pooling2d (Gl (None, 128)               0         
_________________________________________________________________
flatten (Flatten)            (None, 128)               0         
_________________________________________________________________
dense (Dense)                (None, 29)                3741      
=================================================================
Total params: 401,405
Trainable params: 401,405
Non-trainable params: 0
_________________________________________________________________
None
Epoch 1/100
  1/159 [..............................] - ETA: 0s - loss: 5.1967 - accuracy: 0.0312  
…
